model_state_dict.pt (torch, 508947 bytes, 10 tensors)

conv1.weight f4 [6, 1, 5, 5]
000000 37 e1 b6 bc 25 b9 ac 3d 3e 62 0c bb 46 ac 3b be
       -0.022324188 0.08433751 -0.0021420862 -0.18327436
000010 ee 3a 03 3e 80 da 3b 3d 0b 1c 82 bd a3 49 02 bd
       0.12815449 0.045862675 -0.06353005 -0.031808507
000020 cb 80 a0 bd c6 bd 98 3d 67 3f 61 3d 80 c0 78 b6
       -0.07837065 0.074580714 0.054992106 -3.706693e-06
000030 ce 29 f8 bd 11 ae 45 be 8e ab 5e 3a 0a 61 f3 3d
       -0.121173486 -0.19304682 0.00084941916 0.11883743
000040 6f c4 a3 bd 3a 3c 60 be 24 ec 08 3e f3 f1 67 be
       -0.07996451 -0.21897975 0.1337133 -0.2265089
000050 9f 54 0f be 4c af 1c 3e 56 be bb bd ad 05 bf bd
       -0.13997124 0.15301245 -0.09167163 -0.093272544
000060 06 96 60 be c4 59 19 3e 10 82 0e 3e 63 a4 03 3e
       -0.2193223 0.14975649 0.13916802 0.12855677
000070 dc 06 51 be b0 9b 4c be 9e db cc bd 9d 06 9d 3d
       -0.20412773 -0.19981265 -0.10002826 0.07667277
000080 a8 3d c6 3d e5 27 2d 3e 1f 2c e9 3d e8 1b 06 bd
       0.09679729 0.1690975 0.113853686 -0.032741457
000090 05 52 02 3d 42 d9 0f 3e c5 ed 84 bd a4 65 30 be
       0.0318165 0.14047721 -0.064906634 -0.17226273
0000a0 c0 7c 35 be bf 95 8d ba 5b 7d 38 bd dd da 8f bd
       -0.1772337 -0.0010802074 -0.045041423 -0.07024167
0000b0 76 4a 08 be a7 fa 46 bd 1a 81 76 3d cc c0 48 be
       -0.13309655 -0.048578884 0.060181715 -0.19604796
0000c0 44 f5 b2 bd 00 2c 5c be 4f ba e0 be 2e 7a c2 be
       -0.08738187 -0.2150116 -0.43892142 -0.3798384
0000d0 e4 0f 20 bd ed 40 bd bd 8d 50 e8 bd 8d 12 8b 3d
       -0.039077654 -0.09240899 -0.11343489 0.06790648
0000e0 6e 85 0a 3e 1c d7 ad bd 51 07 7c bd 81 0e be 3d
       0.13527462 -0.084882945 -0.061530415 0.0928011
0000f0 2c c0 0f be d3 fe 6b bd 92 58 81 bd 3b 08 48 be
       -0.14038152 -0.057616066 -0.063157216 -0.1953439
000100 1d 6d e9 be 69 8b 2d bd 8b c5 ee 3d 2f a2 06 3e
       -0.4559106 -0.04236928 0.11658772 0.13147806
000110 d1 60 02 bf c1 8e 39 bd 21 63 58 3e 84 8f 90 be
       -0.5092898 -0.045302156 0.21131565 -0.28234494
000120 84 cc c6 bd 28 8d 9b bd 1f 58 79 3e df cb c1 bd
       -0.09706977 -0.07595283 0.24350022 -0.094627135
000130 d2 26 41 be 37 f3 69 3c 43 0d b4 bd 10 9b 8c 3d
       -0.18862465 0.014279178 -0.08791592 0.06865513
000140 cf 35 e6 bd 83 ef 41 be c6 53 42 3d e5 1b 71 be
       -0.11240732 -0.18939023 0.047443174 -0.23545797
000150 5f 9c 47 3d d4 16 db 3d f6 5f 01 3e b6 93 6d bd
       0.04873311 0.106977135 0.12634262 -0.058002196
000160 1e d6 1c 3d c5 40 e8 3d fe 21 4c 3c db 8f ca bd
       0.038290136 0.11340479 0.012459276 -0.098907195
000170 09 cf a5 3d ac a4 b8 3d 28 93 22 be 1e 3f f7 bd
       0.080961294 0.09015784 -0.15876448 -0.120725855
000180 ad 1b 85 3d cc c7 ff 3d a0 5b 65 bc 59 cd 0f 3e
       0.06499419 0.1248928 -0.013998896 0.14043178
000190 b1 95 69 3d 99 25 ae 3c ce f1 d6 bd 8b 6e 22 3e
       0.057027522 0.021258162 -0.10495339 0.15862481
0001a0 07 50 9d 3d 0e 06 4b bb a2 52 82 bd 96 ba 2a 3e
       0.0768128 -0.003097895 -0.06363417 0.1667274
0001b0 ed 25 06 be 50 66 43 3c b8 07 4e 3d c8 fb 40 bc
       -0.13100405 0.011926249 0.05030033 -0.011778779
0001c0 1e 72 b3 bc e9 8c b4 3d 4c 93 c3 3d 3f 98 90 3d
       -0.021905001 0.08815939 0.09549579 0.07060289
0001d0 2b d1 db 3c db c4 d7 bd bc fb 29 3e 26 78 11 be
       0.026833137 -0.10535594 0.16599935 -0.14205989
0001e0 b9 be b1 3c 0d ca 9a 3d 41 63 a7 bd 9e 88 44 bd
       0.021697389 0.075580694 -0.08173228 -0.04798185
0001f0 df fb b5 be 7c 85 43 39 64 f7 11 be 89 d5 5a 3e
       -0.35543725 0.00018646376 -0.14254528 0.2137052
000200 42 0d 1c be b0 f4 9c 3d 32 bb 30 3d 3f 6a 10 be
       -0.15239432 0.07663858 0.043147273 -0.1410303
000210 33 83 3c 3e 2a 16 c9 bd 79 89 ac 3d 16 c2 eb bb
       0.18409424 -0.098186806 0.08424658 -0.0071947677
000220 af fc d8 bd 28 c1 af bd 29 42 a8 3d ad 01 11 3d
       -0.105950706 -0.085817635 0.08215744 0.03540199
000230 5b 6b ca 3d c0 19 a7 bc 17 61 b1 3c 7b 32 19 3e
       0.09883758 -0.02039802 0.021652741 0.14960663
000240 23 6b 1b 3d 3c 91 8c 3d 38 d4 5c 3d 90 38 62 bd
       0.03794397 0.06863639 0.053913325 -0.055229723
000250 b4 1a 0d 3e 7e 1a 91 bd
       0.13779718 -0.07085131

conv1.bias f4 [6]
000000 0c 56 2d be 92 5b 86 3d 27 cd 7c 3e 21 9d 2a be
       -0.16927356 0.065604344 0.24687634 -0.16661502
000010 fe f3 9b 3d 64 bb b3 be
       0.07614897 -0.35103905

conv2.weight f4 [12, 6, 5, 5]
000000 c5 ea 6b bd 74 ec ab 3b 6b eb dd bd 62 22 9a bd
       -0.05759694 0.0052466933 -0.10835918 -0.07526089
000010 6b 54 ab bc 8e 6a d1 bd 89 ca 44 bd bd 79 c8 bd
       -0.020914277 -0.10225402 -0.048044715 -0.09788845
000020 01 72 e7 bd 57 25 3a bd c7 9b df bc 48 a2 bf bb
       -0.113010414 -0.045445766 -0.02729596 -0.005848203
000030 c3 d7 e0 bd 39 56 e4 bd 5c c1 2e bb cb a9 97 3d
       -0.10978653 -0.11149258 -0.0026665544 0.07405432
000040 39 d2 5d bc 56 0b db 3c 66 23 1f 3d e4 5b c8 bd
       -0.0135388905 0.026738804 0.038852118 -0.09783152
000050 b5 41 4a 3d 55 58 d2 bd fa 5e 31 3d 7f b5 24 bd
       0.04937907 -0.10270754 0.043303467 -0.04021215
000060 f6 b7 a6 bc d6 be 2c bd 2d fe b6 bb 97 d1 7d bc
       -0.020351391 -0.042174183 -0.0055844993 -0.015491865
000070 07 05 85 bd 40 ce a7 3c 5b 04 43 bd 95 fd 2f bd
       -0.064950995 0.02048409 -0.047611576 -0.042966444
000080 04 6b f4 b9 e3 8b 10 bb 99 b3 43 bd 18 c2 81 bc
       -0.0004661904 -0.0022056035 -0.0477787 -0.015839621
000090 ca 37 8c bc bc 1c da 3c 3a 9d 68 bd 69 d5 d2 bd
       -0.017116446 0.02662503 -0.056790568 -0.10294611
0000a0 c2 ca 48 3d d7 19 84 bd 3b 6a e5 bd b9 22 07 bd
       0.04902149 -0.06450241 -0.112019025 -0.0329921
0000b0 2d 38 db bc 4b b1 e6 bb ae 14 86 bd 17 7d 5f 3c
       -0.026760185 -0.007040178 -0.06546913 0.013640664
0000c0 48 92 ad bd 2f e6 73 bc 9f 59 72 bd 26 c1 5a bd
       -0.084751666 -0.014886423 -0.0591675 -0.053406857
0000d0 a3 85 d6 bc 68 82 17 be e7 6c ac bd 5e eb 5b 3d
       -0.02618677 -0.1479584 -0.08419209 0.05369126
0000e0 b5 73 d3 bb e3 71 0e be 5f ca 83 bc c1 bc c8 bc
       -0.0064530023 -0.13910632 -0.016087709 -0.024504067
0000f0 71 ae f6 3e 97 79 4d be 53 cb 98 bd 8f c9 41 3d
       0.48179963 -0.20065914 -0.07460656 0.047311362
000100 e7 13 13 bd d5 09 ad 3d 82 19 1b bd d9 2c 4c bd
       -0.035907652 0.08449141 -0.037866123 -0.049847458
000110 a2 aa 32 bd 20 84 be bd 0c 21 c3 ba 60 31 d5 bd
       -0.04361976 -0.093025446 -0.0014887168 -0.10409808
000120 a9 73 06 be 80 4a fb bd b1 a9 f7 bd 96 04 82 3c
       -0.13130058 -0.12270069 -0.12092913 0.015871327
000130 11 4e b3 3c 62 07 bc bd 60 78 e8 bd 42 85 da bd
       0.02188781 -0.09181096 -0.11351085 -0.10669948
000140 30 cb 3f bd d7 b2 23 3d 4b bd 86 bc 2d 4d 43 bd
       -0.046824634 0.039965477 -0.016447684 -0.047681022
000150 50 9c 6c bd fb 0b d4 bd d0 f1 ce bd 78 cb 35 bc
       -0.05776626 -0.103538476 -0.10104716 -0.011095874
000160 7e 95 44 bb 3f 6f bf bd 59 77 c6 bd 19 31 97 bd
       -0.002999633 -0.093473904 -0.096907325 -0.073824115
000170 60 07 23 3d b4 36 93 bc a2 09 20 bc 05 af b5 3c
       0.039801955 -0.01797042 -0.009767922 0.022178182
000180 76 f4 a4 bd c4 95 24 3d a8 2a c4 3b b1 2b bd bd
       -0.0805444 0.04018189 0.0059865303 -0.09236849
000190 21 03 7c bd d6 93 26 3d 18 fd 72 bc a9 41 be bd
       -0.06152642 0.04066833 -0.01483085 -0.092898674
0001a0 9c ab 97 bd bc 0d b8 bd 14 5e a0 bd 2c 1b 33 bd
       -0.07405779 -0.089869946 -0.07830444 -0.043727085
0001b0 90 4a 2f bd df b1 89 bd 54 2d 0b bd c2 09 2d 3d
       -0.042795718 -0.06723379 -0.033978775 0.042245634
0001c0 e0 4b 95 bd b3 9b c9 bc fa 94 22 3d 99 85 2b 3d
       -0.07289863 -0.024610376 0.039692856 0.041875456
0001d0 53 6e a2 bb d2 6d bd bc f5 6e 0c bd ad 17 db bc
       -0.0049569993 -0.023123655 -0.034285504 -0.026744688
0001e0 85 62 a8 bd 3e 47 3f bd 66 0b 54 3c 38 6b f9 bb
       -0.08221916 -0.0466988 0.012942171 -0.0076116584
0001f0 80 ac 93 bd 71 d4 0c be 88 f2 24 bd 3b ec 07 bd
       -0.07210636 -0.13752915 -0.04027036 -0.03318427
000200 19 95 05 be 1c 2a 72 bd e4 16 1b be c3 10 01 bd
       -0.13045157 -0.05912219 -0.15145451 -0.031510126
000210 76 76 0d be de 0b 97 3c 0c e3 41 bd ff 04 ae 3d
       -0.1381472 0.018438276 -0.04733567 0.08497047
000220 05 5a f5 bd 80 20 8a bd 98 e0 31 bc 3e ae 8e bd
       -0.119800605 -0.0674448 -0.01085677 -0.06966828
000230 33 d9 eb 3d da 28 09 be 98 33 36 bd 00 ac b0 bd
       0.11516037 -0.1339449 -0.044482797 -0.086265564
000240 a8 6f ae bd 60 81 1c be d0 e7 e3 bd 99 6c 9b bc
       -0.085173905 -0.15283728 -0.11128199 -0.018972682
000250 29 ce 01 be 2a 31 7b 3c f5 1e ab 3d ce d8 82 3c
       -0.126763 0.015331546 0.08355514 0.015972521
000260 56 6e 7a bd 76 64 a5 bd 60 16 84 bc cb 02 51 bd
       -0.06114038 -0.08075802 -0.01612395 -0.051028054
000270 05 9c 65 3d b4 d6 79 bd 03 12 7f bd a6 d4 27 be
       0.056056995 -0.060995772 -0.062273037 -0.16389713
000280 e9 fc a1 3c b0 f0 ab bd 3c b1 08 3d 0a 48 5b 3c
       0.019773917 -0.08395517 0.03337215 0.013383875
000290 2b fd ac 3c f2 4b 80 bd 3d 8b 42 3d 33 a3 e5 bc
       0.021116814 -0.062644854 0.04749607 -0.028031921
0002a0 fc 99 f3 bd 60 d2 4f bd 92 65 32 3d 49 af a7 bd
       -0.118946046 -0.05073774 0.043553896 -0.0818773
0002b0 a4 f8 40 bd b6 b6 4d bd 9d 2f b4 3c 5f 0b cd bd
       -0.047112122 -0.050223075 0.02199536 -0.100119345
0002c0 17 85 aa bd 14 61 32 3d 53 7b 2b 3d f4 3d 04 3d
       -0.08326166 0.043549612 0.041865658 0.032285646
0002d0 39 f0 83 3d 13 ce 18 bd 23 01 fa 3c a5 77 c3 bd
       0.06442303 -0.037305903 0.03051812 -0.09544305
0002e0 70 15 38 3d 2f 0b d2 bc f6 00 c7 bb 38 46 bb 3b
       0.04494232 -0.025640098 -0.0060731126 0.005715158
0002f0 11 7c 4b bd 9a 6d e5 3c 32 38 9e bd d4 c7 38 bb
       -0.049678866 0.028006364 -0.07725562 -0.0028195279
000300 a2 99 27 bd 47 af 6d 3c eb 0a fc bb 35 be 93 bc
       -0.040918 0.014507121 -0.007691731 -0.018035034
000310 6a 2b de bd e5 3b 2a bd 5f 48 c0 bd 3f d5 c3 bc
       -0.10848124 -0.041561026 -0.09388804 -0.023905395
000320 2d 01 8c 3d 3f 57 15 3d 00 f2 f2 3d 4c 0e 46 3e
       0.06836162 0.036460157 0.11862564 0.19341391
000330 b4 ac 90 3d 9e 84 44 3d 1a dd 54 3a 1d 2e a0 3d
       0.070641905 0.047978036 0.0008120105 0.078212954
000340 7a 57 41 bd 9b 4a 21 3e e4 fc 0b 3e 03 8f db 3d
       -0.047202565 0.15751116 0.13670689 0.10720637
000350 1e 40 49 3e 50 ab 99 3d ab ce 84 3e 29 82 9d 3e
       0.19653365 0.075033784 0.25938925 0.30763367
000360 20 e8 23 bd b5 84 06 3e a7 95 ab 3d ba 5c e6 3d
       -0.040016294 0.13136561 0.08378153 0.11248155
000370 51 f9 f2 3e ad fc a5 3b 6b ee 01 3e a4 a9 c5 bb
       0.47455838 0.0050655217 0.12688605 -0.0060321856
000380 5e 6c 49 3e d4 62 d3 bd b9 eb 8e bd 7d 95 2b 3d
       0.19670245 -0.10321584 -0.06978554 0.04189061
000390 1f 10 8d 3c 79 43 e8 bb 9b 94 38 bb 8f c4 0e bd
       0.017219601 -0.0070881215 -0.0028164748 -0.03485542
0003a0 36 7c b0 bd 9f e4 8a 3c ed 29 d0 bd 0f a4 7d bd
       -0.08617441 0.016954718 -0.10164247 -0.061924037
0003b0 e0 26 cf bd c5 5c 08 3d 76 29 d2 3c 3c 4e 95 3c
       -0.10114837 0.033291597 0.025654536 0.018225782
0003c0 dd c2 83 3c ef f8 57 bd 5f 3e b5 bd a2 98 9e 3c
       0.016084129 -0.052727636 -0.08849787 0.01935989
0003d0 30 7c 80 bd 18 80 c9 bd 5b 83 de bc f2 eb 0a 3d
       -0.06273687 -0.09838885 -0.027162245 0.03391642
0003e0 23 ac a9 bd 3e 7a a8 bd 9b 4d 1c bc c3 0c 9f 3c
       -0.082847856 -0.08226441 -0.009539987 0.019415265
0003f0 4d 3e 53 bd 74 9a c4 bb f1 01 2e 3d 12 0e e2 bd
       -0.051573087 -0.0059998576 0.04248232 -0.1103784

conv2.bias f4 [12]
000000 63 ec 84 bd cb 1c 96 3d 01 a7 27 bd 92 60 4d 3e
       -0.064904 0.073297106 -0.04093075 0.2005637
000010 3d 1a 5a bd 82 3a 38 3d 30 04 25 bd 6b 1f 00 3f
       -0.05324768 0.044977672 -0.040287197 0.5004794
000020 9b ab 54 bd 7e 4c ff 3b 3a bd a9 bd 4b 03 07 3d
       -0.05192147 0.007791101 -0.08288045 0.032962125

fc1.weight f4 [120, 972]
000000 34 fb f8 3b 39 50 32 bd 63 b6 03 bd 12 ce 7d bd
       0.007598305 -0.043533538 -0.03215636 -0.061964102
000010 a7 8a 03 bb 9d aa e5 3c cb ac 48 3c ca 1d 47 3b
       -0.0020071657 0.028035456 0.012248228 0.0030382746
000020 25 33 30 3d e9 ac bb bd de 22 98 bd aa 28 26 bd
       0.043017525 -0.09163839 -0.074285254 -0.040566124
000030 84 ca 0c bd 02 bb 72 bd cb 41 d4 3c 16 73 3b 3d
       -0.03437282 -0.059260376 0.025910279 0.04576405
000040 f3 f1 45 3d 91 1d 94 bc 65 01 8b bd d9 f8 6d bd
       0.048326444 -0.018080505 -0.06787375 -0.058098648
000050 b4 85 bf bd 2e 7d 0f bd 14 62 b8 bd 74 99 e9 3c
       -0.09351674 -0.03503149 -0.09003082 0.028515555
000060 9f 74 22 bb 8d f3 3f 3d 30 99 b1 b9 4f 05 77 bd
       -0.002478875 0.046863127 -0.00033874204 -0.060307797
000070 81 9c af bd 25 95 b5 bd 69 22 b3 bd 88 84 11 bd
       -0.085747726 -0.08866338 -0.087467976 -0.035526782
000080 19 01 76 3d a6 94 28 3d 4a 71 80 ba 0a e3 9c 3b
       0.06005964 0.041157387 -0.0009799388 0.0047878074
000090 34 e9 a6 bd 53 47 b6 bd 08 8d c0 bd dc ea 7f bd
       -0.08149949 -0.08900323 -0.094018996 -0.06247984
0000a0 41 71 a9 bd dd 88 4e 3d 61 33 6f 3c b1 63 21 bd
       -0.082735546 0.05042349 0.014599652 -0.039401714
0000b0 96 26 09 bd 5f 7e 90 bd 01 b4 48 bd e4 f1 9d bd
       -0.033484064 -0.070553534 -0.04899979 -0.077121526
0000c0 87 fd 2b bd 82 a1 66 bd 85 df b9 3b a9 49 75 3c
       -0.04198983 -0.05630637 0.0056723976 0.014971175
0000d0 0b 08 ea bd 91 4f a4 bd d0 67 b9 bd 6b 52 74 bd
       -0.11427315 -0.080229886 -0.09053004 -0.059648912
0000e0 79 21 57 bd 0d 25 96 bd 4d 2e 32 bd bf 20 1b 3d
       -0.052522156 -0.073312856 -0.043501187 0.037873026
0000f0 ae b8 2a 3c e3 20 42 3c 17 11 ad bd 7a 40 88 bd
       0.010420008 0.011848661 -0.08450525 -0.06652923
000100 62 37 88 bd 29 06 9f bd 0e 25 13 3d 36 9e b4 bd
       -0.066511884 -0.07764847 0.03592401 -0.08819239
000110 48 62 24 3d 11 3c b9 bc 54 d7 e8 bb f0 88 75 3d
       0.04013279 -0.02261165 -0.0071057472 0.059945047
000120 19 c5 c2 bd 34 ef 98 bd 3f 24 b4 bd 9a 9c 5a bd
       -0.0951025 -0.074674994 -0.08795976 -0.053372003
000130 45 a7 ab 3c 6d dc 1b 3d 43 98 fe bc 47 7f ba bc
       0.020953784 0.03805201 -0.031078463 -0.022765769
000140 b9 dd 8f bd 11 73 27 bd 1a 2a 85 3d e7 2b 52 3d
       -0.07024712 -0.04088122 0.06502171 0.0513114
000150 af 79 d5 bc 36 43 a9 3c 99 1e f2 3d de 52 13 3c
       -0.026059 0.020661931 0.11822242 0.008991925
000160 f0 56 f1 3b 65 57 0e 3c ad 81 9c bb 87 cb 28 bd
       0.0073651 0.008687829 -0.0047762007 -0.041209724
000170 75 7b 2c bd f2 ee 89 3c 3b 5c 2b bd 18 20 ba bc
       -0.042109925 0.01683757 -0.041836005 -0.022720382
000180 a5 88 7c bd 74 9e 2b 3b a5 e9 01 bb 28 d1 0e 3d
       -0.061653752 0.0026186975 -0.00198231 0.034867436
000190 dd f7 16 bc ee 6d 33 3c 70 d3 d3 3b 2a 28 09 bd
       -0.009214369 0.010951502 0.0064644143 -0.03348557
0001a0 41 bf 61 3c 97 78 80 bd ab 59 05 bd 10 4a c0 3c
       0.013778509 -0.06273001 -0.032556217 0.023472816
0001b0 ed 12 21 3c 40 cc 3b 3d 96 c6 73 3d fc 07 86 bd
       0.009831172 0.045849085 0.05951556 -0.06544492
0001c0 ff 85 f3 3b 90 03 64 3d 91 7a f5 3c 4b 3b 7f bd
       0.007431745 0.05566746 0.02996567 -0.062312406
0001d0 9b e0 9c 3c 21 1e 35 bd e7 75 7e 3c 22 66 f4 3b
       0.019150069 -0.044218186 0.01553104 0.0074584642
0001e0 4c 96 cd 3c 32 fc 65 3d 88 1e c6 bc 60 dc d8 3b
       0.025096081 0.056148715 -0.02418448 0.0066180676
0001f0 c0 26 85 3d a4 2b a4 bd d7 20 44 bc 63 e9 2a 3d
       0.065015316 -0.08016136 -0.01197072 0.04172648
000200 34 53 9b bd cc 03 50 3c 1a dc d7 3c db 90 85 bc
       -0.07584229 0.012696218 0.02635007 -0.016304424
000210 5d 37 d1 bc 0a 24 89 3d 78 3f 76 3d 9a 3a eb bc
       -0.025539095 0.06696327 0.060119122 -0.028714467
000220 f5 b4 9b bc 12 bc 1a 3d a9 5d a9 3d ac 5b 3b 3c
       -0.019007185 0.037777014 0.082698174 0.0114354305
000230 98 56 0c 3c 94 d3 e8 3c fa 94 be 3b 2b 16 82 3d
       0.008565567 0.0284212 0.0058160992 0.063518845
000240 34 4e 42 bd 48 58 b4 3c 23 bd 2c 3d 49 c6 fa 3c
       -0.04743786 0.022014752 0.042172562 0.030612128
000250 9e 7e 62 bc 06 f6 14 bd 7a 7c b9 3c 6d fb 7b 3d
       -0.013824133 -0.03636744 0.022642363 0.061519075
000260 36 d3 2f 3d 69 49 82 3d 93 2b 85 3d 60 70 ee 3c
       0.042926036 0.06361658 0.06502452 0.029106319
000270 f5 21 e5 3c e8 d0 96 3d 58 dc 28 3d 5a 2b 9a 3b
       0.027970294 0.073640645 0.04122576 0.004704875
000280 23 fe cb 3d e1 01 46 3d 5b 8a cc 3c 55 56 3c 3d
       0.09960582 0.048341636 0.024968317 0.04598077
000290 c3 da 6f 3d db ac 4a 3d 8c 75 19 3d b8 46 14 bc
       0.058558237 0.049481254 0.037465617 -0.009050064
0002a0 6a 4a 98 3d 00 95 b1 3c 8c 76 cc 3c 7b e7 b1 3c
       0.07436068 0.021677494 0.024958871 0.021716824
0002b0 ac 66 48 3d 0a 94 96 bd 0d 3e 1d 3d cf 62 70 bd
       0.04892604 -0.07352455 0.038389254 -0.05868798
0002c0 c0 28 9b bc 64 48 b8 bc 6a 1b 41 bc 0e fc 1f bd
       -0.01894033 -0.022495456 -0.011786321 -0.039058737
0002d0 86 4b 4d bc 68 bb 08 bd 3b 28 98 bd ce b3 65 3b
       -0.012530213 -0.03338185 -0.07429548 0.00350498
0002e0 2f bf 58 3c b7 2b 0a 3d a5 c2 cb 3c 41 55 9d 3c
       0.0132291755 0.033733096 0.024873087 0.019205691
0002f0 a3 94 e0 3c bb 9f 3b bd c0 d4 79 3b 2a 06 c2 bc
       0.027414626 -0.045806628 0.0038121194 -0.02368458
000300 26 3c 10 3d 76 02 1b 3d 6c 76 5e 3d e5 2c 48 3d
       0.035213612 0.037844144 0.054312155 0.04887094
000310 63 dc 10 bd 08 1a a3 3c 58 98 f6 bc 10 ef 31 bd
       -0.035366427 0.019909874 -0.03010194 -0.04344088
000320 51 81 76 bd cc 1b fa 3c 43 fd 59 bd 44 7a 84 3d
       -0.06018192 0.030530833 -0.053220045 0.06468633
000330 ac 41 4a 3d cc c4 55 3b 71 e0 34 bd 99 90 b6 3b
       0.049379036 0.003261852 -0.044159357 0.0055714366
000340 81 a5 82 3d fa c3 9d bd 9d 4d 7b 3d bb 51 50 3c
       0.063792236 -0.07703395 0.061353315 0.012714799
000350 82 ad 87 3d c6 78 cb 3c c7 33 47 3d 28 97 9e 3b
       0.06624891 0.024837863 0.048633363 0.0048397966
000360 7d 5b 1e bd de 4f 36 bc 0b 90 15 3d 3b 84 94 3d
       -0.03866147 -0.01112744 0.036514323 0.072517835
000370 2e 09 48 3d 4a 6b f3 3c a5 af 59 3d af 42 15 3d
       0.04883688 0.029714245 0.053146023 0.036440548
000380 9e 4c 03 3d 6b df 71 bd e2 50 0e 3d ee a0 bc 3c
       0.03205549 -0.05905096 0.034745105 0.023025956
000390 e7 fb 34 3d da d3 2d 3d 34 83 c8 3c 68 e4 1f bd
       0.044185545 0.042438366 0.024476625 -0.039036185
0003a0 8e f3 19 3d 86 c5 64 bd a2 6d 82 3d c5 44 76 3c
       0.037585787 -0.055852436 0.06368567 0.015031044
0003b0 d2 ba 4a 3d 8f dc 46 3d b7 14 a2 3c 3b 7c 1c 3d
       0.049494572 0.048550185 0.019785268 0.038204413
0003c0 f0 ed c8 ba ce 72 95 bb 17 87 dd bc e6 48 95 bd
       -0.00153297 -0.004560805 -0.027041955 -0.07289295
0003d0 18 53 ab bb 61 ff 11 bd 5c 77 c4 bd cf c6 86 bd
       -0.0052284114 -0.03564394 -0.095930785 -0.065808885
0003e0 21 dd a4 bc df ba 8c bd ac 7f e4 bd 82 ae 56 bc
       -0.020124974 -0.0687158 -0.11157164 -0.013103129
0003f0 3d 88 a6 bd 64 f9 ec bc e4 80 f1 bd fd 52 9c bd
       -0.08131454 -0.028927512 -0.11792162 -0.07633016

fc1.bias f4 [120]
000000 e7 15 8f 39 44 2f 99 3d 06 da 99 3e 84 cf 02 bd
       0.00027291404 0.07479718 0.3004915 -0.031936184
000010 94 c0 bd 3d dc 3c ad 3c 0f 62 ab be ba 3e f2 3d
       0.09265247 0.021147184 -0.3347325 0.118283704
000020 fc 41 4d 3d 2c fa 35 bd 0e c1 a8 3d d5 11 27 3d
       0.050111756 -0.044428036 0.08239947 0.04078849
000030 52 a6 0e bd 3c e2 87 3d 0f 9a f0 3e 9d d0 a6 bb
       -0.034826584 0.06634948 0.46992537 -0.0050907866
000040 ad 20 00 bd 42 49 94 ba fc 09 da 3e ab fb e1 bc
       -0.031281162 -0.0011313336 0.42585742 -0.027585825
000050 63 bc 7d bd 04 7a e6 3b b2 f7 f0 3e a9 51 0f 3e
       -0.061947238 0.0070335884 0.47063977 0.13995995
000060 42 47 ed bd ca 04 0a 3f 05 1e 2d be 1b d8 cf bb
       -0.11585857 0.5391356 -0.16905983 -0.0063429005
000070 2c 98 19 bc 32 af 09 3d f7 09 a1 3d f2 d7 0e 3e
       -0.0093746595 0.033614345 0.07863229 0.13949564
000080 2d 15 9b 3d 64 d4 eb be 31 57 2d 3e b6 63 85 bc
       0.07572398 -0.4606048 0.16927792 -0.016282897
000090 50 e7 ea 3d e7 72 92 bd d5 7b 95 bd 34 a8 be bb
       0.114699006 -0.07150822 -0.0729901 -0.005818391
0000a0 f2 6d 5d bd 2e c4 3c bd b5 d7 c6 3b 9f 7b c2 3d
       -0.05405993 -0.04608553 0.0060681948 0.09496235
0000b0 7c ea 84 3d 44 55 b7 3e 13 55 39 bd ec 2d 88 bd
       0.06490037 0.3580724 -0.04524715 -0.06649384
0000c0 a6 e0 92 3d b4 31 61 bc 5f a9 9c 3d 23 96 97 3c
       0.071717545 -0.01374476 0.076494925 0.018504208
0000d0 9b 97 9e 3d 83 d3 0e 3d 25 65 90 bc 8f a1 71 3b
       0.0774376 0.034869682 -0.017626354 0.0036869978
0000e0 85 05 a6 3d da 19 00 be ed bb 0d 3d 34 9e 96 3d
       0.081065215 -0.12509862 0.034603048 0.073543936
0000f0 f7 f3 5a bb 36 2e 2e 3e 4a 74 29 bd dc 06 56 3c
       -0.0033409575 0.17009816 -0.041370668 0.013063159
000100 07 3b 7b bd 76 75 0c 3d e8 a7 81 bd ce 81 28 3e
       -0.06133559 0.034291707 -0.06330854 0.16455767
000110 13 7e ea bd 47 9c 9f bc 61 3e 09 3e 56 0b 3f 3e
       -0.11449828 -0.019483699 0.13402702 0.18656668
000120 35 cb f0 3e c6 56 e1 3d 33 02 17 3d ae 51 d2 bc
       0.47030035 0.11002879 0.03686733 -0.025673714
000130 ad 0b 0b 3c 0b eb 07 3e ab ae 93 3d c6 cf ed bc
       0.00848667 0.13273256 0.0721105 -0.029029738
000140 2a 80 2c bd c2 b6 78 bd a0 61 57 3e 1d f0 a9 3e
       -0.042114414 -0.060721166 0.21033335 0.33191004
000150 bc b1 05 be 6b 9a 07 3d 63 9c dd bb 30 af f6 3d
       -0.13056082 0.03310625 -0.0067630275 0.12045133
000160 c3 12 9a 3e ea b1 54 bd 50 5e f9 3e f5 f0 45 bc
       0.3009244 -0.051927485 0.48704767 -0.012081374
000170 f8 fb 87 3b f6 63 bb bc 8d 3e e1 3e c4 e1 6b 3d
       0.00414991 -0.022874814 0.43993035 0.057588354
000180 40 16 8b 3e 17 1c c1 3d 16 06 86 3e 79 e8 5b 3d
       0.27165413 0.09429186 0.26176518 0.0536885
000190 99 d7 28 bc 8c 87 d2 3d fc 19 fe 3e 79 ff 94 bb
       -0.010305309 0.1027976 0.496292 -0.0045470563
0001a0 3e 1c 04 bc 53 44 af 3e b4 63 15 3c b4 4f 06 3d
       -0.008063374 0.34231815 0.009118009 0.032790855
0001b0 e8 3d 5c bb 1e 68 a6 bd 92 eb 22 bd 25 80 4a bd
       -0.0033606235 -0.081253275 -0.03977544 -0.049438614
0001c0 b0 bd 9e 3d 93 c1 a5 3e cc 29 99 3d 96 23 02 3e
       0.07751024 0.32374248 0.07478675 0.12708887
0001d0 1d 43 9e 3d a9 4b 83 3d 41 73 f8 3e 82 d7 b2 bc
       0.077276446 0.064109154 0.48525432 -0.021831278

fc2.weight f4 [60, 120]
000000 61 b7 0a be 40 59 94 bd df e8 a8 3d c8 95 87 3a
       -0.13546516 -0.072435856 0.08247542 0.0010344321
000010 be 9a b4 3c 22 67 58 3c 8a 21 e8 bd 1c 2b eb 3d
       0.022046443 0.0132081825 -0.11334522 0.11482832
000020 f2 1b 92 3a b7 5e 37 3d 30 d7 12 bc 02 3c 9d be
       0.0011147244 0.04476806 -0.0089624375 -0.30709845
000030 3e 9e 0f 3d 1d 50 39 3d 8c ff e8 bd b8 8e c1 bc
       0.03506302 0.045242418 -0.11376867 -0.023627624
000040 6e 0a e1 bd a9 3d 75 3d aa 65 f7 bd 12 51 a1 bd
       -0.109883174 0.059873257 -0.12079938 -0.07876791
000050 96 79 c5 bd f0 68 80 bd 26 0c 8b bc 18 59 9e 3e
       -0.09642331 -0.06270015 -0.016973566 0.30927348
000060 11 6f 7a 3c 86 bf ca be da 13 b2 bd ce e0 e0 ba
       0.015285269 -0.39599246 -0.08695193 -0.0017156841
000070 64 2d 90 3c ee 30 52 3d 0f 48 27 3d 28 c9 c2 bd
       0.017599769 0.051316194 0.040840205 -0.09511024
000080 1d 3c a9 bd 54 ac 42 bd bd 31 6b 3c eb ef c9 bd
       -0.08263419 -0.047527626 0.01435512 -0.09860214
000090 30 1a 98 bd da d7 1c bd 8c 14 08 3d 92 b5 04 3d
       -0.0742687 -0.03829179 0.03322272 0.03239972
0000a0 22 8b 4b 3d 01 d4 9b bd 74 1f 73 3c 27 58 02 3d
       0.049693234 -0.07608796 0.014839042 0.03182235
0000b0 03 bb c1 bd 07 e9 35 be 93 eb 14 3c 6f 54 3a bc
       -0.09459498 -0.17764674 0.009089368 -0.01137267
0000c0 5d 9f f6 bd f7 23 8f bd 2a 14 d3 3c 11 e0 c2 bd
       -0.12042115 -0.069892816 0.02576645 -0.095153935
0000d0 b0 c1 e9 bd 1f 5c 45 bc 27 4e ef 3c b7 9e d1 bd
       -0.11413896 -0.012045889 0.02921207 -0.102353506
0000e0 84 6d ec 3c b5 b5 f6 bd c6 18 5b bb 4e c2 e0 bd
       0.028860815 -0.120463766 -0.0033431514 -0.10974561
0000f0 3e f5 b9 bb 7f 93 03 3e f6 1a f8 3c a8 18 99 3c
       -0.005674987 0.12849234 0.030286293 0.018688515
000100 6f 3b 4e bd 75 1b de bd 95 cb 86 3d 98 d3 48 3d
       -0.05034965 -0.10845081 0.06581799 0.049029917
000110 23 71 8b be ac ee 3e 3d ca 7f 00 3d 41 e3 a6 3c
       -0.27234754 0.046614334 0.03137187 0.020372035
000120 9f 14 d5 bd 64 bb 79 bd 3f ff 8e bd 96 52 28 3c
       -0.10404324 -0.060969725 -0.06982278 0.010273596
000130 91 fc 8b bd ff 33 80 3d 89 11 32 bc c4 88 b0 bd
       -0.068352826 0.062599175 -0.0108684385 -0.08619836
000140 da e7 16 bd 9a 7e 28 bb b3 7f fa 3d 9e 12 c1 3e
       -0.036842205 -0.0025710226 0.12231388 0.37709516
000150 82 d5 90 3d ad 92 57 3d 49 8f 98 bd 4c 99 02 be
       0.070719734 0.052630115 -0.074492045 -0.1275379
000160 35 11 87 bd 07 b9 9f bd 7c 10 fa bd f0 e6 58 3d
       -0.06595079 -0.07798963 -0.122101754 0.052954614
000170 35 0d b5 bc bb 3a 46 3d b0 0e 30 be 42 9a 21 3d
       -0.022101024 0.048395853 -0.17193103 0.039453752
000180 12 30 25 3d b6 9b eb bd af 23 77 3b 69 64 ab bd
       0.040329047 -0.11504309 0.0037710478 -0.08368761
000190 c1 b9 f1 bc b5 8c 9b bd 68 ac 93 bd e6 9e ea 3b
       -0.02950752 -0.07595197 -0.07210618 0.0071600555
0001a0 cf cf b6 bc 3b c3 9c bc ae 5e b9 3c 58 14 4d 3d
       -0.022315888 -0.019136062 0.022628155 0.05006823
0001b0 b0 4f d1 ba 7b b0 55 bd f5 e4 8b bd 21 94 98 bc
       -0.0015969183 -0.052170258 -0.068307795 -0.01862532
0001c0 49 7a e3 bd e4 2d a0 bd 27 60 3c bd 5b 40 bc 3d
       -0.111073084 -0.07821253 -0.045990136 0.09191962
0001d0 3a b2 cc 3b bc 47 0a 3d 60 0f 03 be 08 29 dd bd
       0.006246832 0.033759817 -0.12798834 -0.10798842
0001e0 94 af 30 bc 81 4a d9 bd 97 fc d3 bd 3f 5d a9 bc
       -0.010784049 -0.106099136 -0.10350912 -0.020674346
0001f0 2e 36 87 3d 31 31 71 bd d2 cc de bd b4 93 b1 bd
       0.06602131 -0.058884803 -0.1087891 -0.0867075
000200 fb f3 39 3d d4 2b 24 bd 3d ee 1b be 0b 94 bd 3c
       0.045398694 -0.04008086 -0.152276 0.023141881
000210 22 f1 a2 3d 32 56 21 bd 08 52 b5 bd 91 7e d9 bb
       0.07956149 -0.039388843 -0.08853537 -0.0066374023
000220 dd 07 16 3c 71 11 c5 3d 6d d6 7b bd b5 a7 d3 bc
       0.009157148 0.09622467 -0.06148379 -0.025836805
000230 f2 8b 3a 3d 68 02 b3 bb 94 39 59 bd 2e 52 06 3d
       0.04554362 -0.0054629333 -0.053033426 0.032793216
000240 d1 a2 30 3d 7f fb fa bd c6 08 04 3e e6 0b dc bd
       0.043124024 -0.12255 0.12893972 -0.10744457
000250 3f d6 6c bd 5a b2 08 3d fd 67 19 3d 8d cf b3 bd
       -0.05782151 0.033373214 0.037452687 -0.087798215
000260 04 60 2c be 2e 7b bb bc da d5 d4 bd 0e 97 e3 bc
       -0.16833502 -0.022885885 -0.103923514 -0.02778199
000270 1e d6 8d bd 61 86 1f 3d 9b 4e 00 be fd f5 26 bc
       -0.06925605 0.038946513 -0.12529986 -0.010190484
000280 45 2a a0 bd 02 be a9 3c 6c 94 81 3d 45 da b1 bd
       -0.07820562 0.020720486 0.06327137 -0.0868421
000290 5b 5b 1e 3d 17 2b 9d 3d 1e d5 fc bc 6d 46 2d bd
       0.038661342 0.07674234 -0.030863341 -0.04230349
0002a0 b4 ec 60 bc 05 c4 9e 3d fa eb 61 3d c1 ce ac 3d
       -0.013728309 0.077522315 0.055156685 0.08437873
0002b0 66 b6 b5 3c ca de 69 3d 3d 04 3b 3d ec 26 9d bd
       0.0221817 0.057097234 0.04565834 -0.076734394
0002c0 56 32 ab bd ac ce 96 3d 83 87 de bc 74 91 6e 3d
       -0.0835921 0.07363638 -0.027164226 0.058244184
0002d0 cd 82 8e 3d d4 8c b7 ba 66 96 a6 bd 6d 40 27 3d
       0.06958542 -0.0014003762 -0.08134155 0.040832926
0002e0 17 50 20 3d ce 2d ff bd b7 c3 ae bd 42 7c c3 bd
       0.03913888 -0.124599084 -0.085334234 -0.09545185
0002f0 9a ce 23 be 99 95 3a bc ea 6c 08 bd 25 f3 e0 bc
       -0.15996781 -0.011388206 -0.033306994 -0.02745969
000300 15 8b 06 be 74 2c e0 bd 39 87 82 bd 47 33 c4 3c
       -0.13138993 -0.10945979 -0.06373448 0.023950232
000310 2c c4 4b 3d 1d 0c 95 bd 59 b2 4d 3c 7a 17 d7 3d
       0.04974763 -0.07277701 0.012554728 0.10502525
000320 ed 41 1f bd 68 69 b9 bc ca d1 0c bc 84 9f ac bc
       -0.03888123 -0.02263327 -0.0085949395 -0.021072157
000330 38 41 56 bd 95 e6 58 3d 9f 47 9a 3d 80 94 42 bd
       -0.05230829 0.052954275 0.07533192 -0.047504902
000340 d6 9c 7d bd 31 ba b5 bd d6 64 e0 3c 87 7f ce 3c
       -0.06191715 -0.08873404 0.027391832 0.025207294
000350 10 1a 95 3d 6a 71 de bb c7 a2 ed bd e8 f0 e4 bd
       0.07280362 -0.0067884224 -0.11603313 -0.11178762
000360 9a f1 64 bd 8e 58 c6 bc e0 46 06 bb 7e 5d 6e 3d
       -0.05589447 -0.024212148 -0.0020489022 0.05819463
000370 34 21 f6 bd 22 6c 06 bd 36 27 87 bd 7b 91 bc 3c
       -0.12018052 -0.032817967 -0.06599276 0.02301859
000380 fd 35 1a bd 0e 4e a2 bd d5 fe fa 3b 0d 1a 81 3d
       -0.037649143 -0.07925044 0.007659773 0.06303797
000390 42 ac 93 bd f8 d2 97 3d f9 fb 02 bd e6 6a 05 3d
       -0.0721059 0.07413286 -0.03197858 0.03257265
0003a0 e8 c6 ab bc 47 ca e2 bd de c6 38 3c 66 ff ed bd
       -0.02096887 -0.110737376 0.011277882 -0.11620979
0003b0 60 c2 a5 3d f5 df c2 3d c8 8e 92 3d 38 5b 87 3d
       0.08093715 0.09515373 0.071561396 0.066091955
0003c0 94 d5 0a 3e 09 78 ce bd d2 65 e2 bd 1e e2 5a 3d
       0.13558036 -0.10081489 -0.11054577 0.0534383
0003d0 8c cd a4 bb 73 51 7f bd 5f 45 e1 bd 50 ec 10 3e
       -0.005029386 -0.062333535 -0.109995596 0.14152646
0003e0 b8 44 72 bb 6f 0f 82 3d a4 01 69 3c d8 3b 7e be
       -0.003696723 0.063506 0.014221583 -0.24827516
0003f0 3e 28 e0 3a 1d e2 79 bd e2 06 f3 bd d5 24 b2 bd
       0.0017101837 -0.061006654 -0.11866547 -0.086984314

fc2.bias f4 [60]
000000 6b 47 bc bd 25 42 60 bd e0 8e 1a bc 49 44 07 be
       -0.091933094 -0.05475058 -0.009433478 -0.13209642
000010 95 bd ea bd 28 b2 42 3d 04 f8 62 bd c5 58 9a bd
       -0.11461941 0.047533184 -0.055412307 -0.07536463
000020 79 ee 3a 3f 21 8f 0a bc c2 90 8e 3e b0 41 90 bd
       0.7302013 -0.008456976 0.27844816 -0.07043779
000030 12 08 d1 3e 19 17 ec 3e d9 b8 00 3f ab 6b 3b bd
       0.4082647 0.46111372 0.50282055 -0.045756977
000040 d1 fc 07 bd ed 19 ef 3d 6d 24 f0 bc 92 aa 1a be
       -0.03320009 0.11674867 -0.029314244 -0.1510413
000050 c2 1f 90 bb 95 fc a7 3d 1a 0e 48 bd 05 18 6d bd
       -0.004398317 0.08202473 -0.048841573 -0.057884235
000060 a1 83 2e 3d d6 b7 68 bd f2 9d b8 3e 7d f1 dc 3d
       0.042606 -0.056815945 0.36058003 0.10788248
000070 a8 27 26 3c 7a 45 a3 bd fc 83 09 3f 24 53 bb bd
       0.010141291 -0.07972236 0.5371702 -0.09146717
000080 d6 92 18 be df 68 f0 3e 11 fe ba bd 8f 34 e9 3e
       -0.14899763 0.4695501 -0.091304906 0.45547912
000090 2f 95 b7 3d 60 03 2e be 3a f2 ca bd 38 c5 9f bd
       0.089640014 -0.16993475 -0.09909482 -0.07801288
0000a0 ab ad 84 bb 06 1c 88 be 3c 68 5a bd 0d 17 b8 bd
       -0.004049023 -0.2658388 -0.053322062 -0.089887716
0000b0 a6 7f 9e bd ec 73 2d 3d 02 a5 32 3c fa ba 52 bb
       -0.07739191 0.04234688 0.010903599 -0.0032154904
0000c0 b0 d3 76 3e 05 c0 4a be 7b b6 7a bd 36 f1 96 bd
       0.2410419 -0.19799812 -0.061209183 -0.07370226
0000d0 d6 ae 16 be cf eb e2 3e 59 12 cc 3b b8 a2 8e 3e
       -0.14715132 0.44320533 0.006227773 0.2785852
0000e0 4c 9e ed bd d9 dc 99 3c aa aa 40 3e ba f9 98 bd
       -0.11602458 0.018782066 0.18815103 -0.074695066

out.weight f4 [7, 60]
000000 fe f1 f9 3d 78 2a 98 bd 0e 66 b4 bb 8d e8 0b bd
       0.122043595 -0.07429975 -0.00550533 -0.034157325
000010 88 19 70 bd 7d e6 76 bd 8a cf 0e 3e f6 2b 8e bb
       -0.0586181 -0.060278405 0.13946357 -0.0043387366
000020 13 e5 45 3d 4c 44 16 3e 8f f9 b2 3d 1b de 1e 3e
       0.048314165 0.1467449 0.08739006 0.15514414
000030 49 be 0b 3c 01 ef ca 3c c1 82 a0 3c 3f 6f 00 3e
       0.008529254 0.024772169 0.019593598 0.12542437
000040 ef 7d b7 3d 38 69 bd 3d e2 93 ab bb e0 ca c6 bd
       0.08959567 0.092485845 -0.005236135 -0.09706664
000050 83 0e df 3d 38 8d a8 3d a3 c3 b4 bd 5d 51 f6 3d
       0.1089144 0.0823006 -0.08826377 0.120272376
000060 96 b5 ce 3d 08 fe 7a 3b 94 e2 34 bd 20 f2 cf 3c
       0.100932285 0.0038298387 -0.044161394 0.025384009
000070 54 f8 25 3d 91 92 40 3c c4 12 aa 3d 42 75 91 3d
       0.040520027 0.011753694 0.083043605 0.07102443
000080 12 bf a6 3d 32 e8 db bd 41 f8 c2 bd 73 e2 0b 3d
       0.081419125 -0.10737647 -0.09520007 0.034151506
000090 b9 21 13 3c 35 81 9a 3c e9 55 1a 3e fd 32 7c 3d
       0.008980208 0.018860439 0.15071835 0.061572064
0000a0 0f 63 20 bd 3b 7b e3 bc c5 87 9c bc 52 d4 f9 3d
       -0.03915697 -0.027768722 -0.019107709 0.121987
0000b0 17 8e 5f 3d 66 a5 c6 bd fb d5 9a bd 3b 77 ec 3d
       0.054578867 -0.09699516 -0.07560345 0.11546179
0000c0 eb 37 1f 3e b5 ef dc 3c e7 4a 6a 3d e6 93 ac 3d
       0.15548675 0.02696977 0.05720034 0.08426647
0000d0 d5 98 dd 3c 4c fe f5 bc e7 de 9e bd 7c 84 d4 bc
       0.027050415 -0.030028485 -0.07757359 -0.02594208
0000e0 d7 c0 e5 bc b0 6f bf bc 60 1c 5d bb 5a ec 0a 3e
       -0.028046055 -0.023368686 -0.0033738837 0.13566723
0000f0 98 f6 b9 3d 73 74 ce 3d cc 52 a7 3d cf 76 fc 3c
       0.09080237 0.10080805 0.08170089 0.030818371
000100 2b 10 07 3e f6 a1 1c 3e c4 9d 96 3d da b1 00 be
       0.13189761 0.15296158 0.0735431 -0.12567845
000110 2c f7 d6 be 07 8b 01 3d 97 21 44 3c 24 92 c9 bc
       -0.41985452 0.031626727 0.011970899 -0.024605818
000120 05 c0 fd bc 31 c4 45 be 18 39 c9 bd 98 18 b4 bd
       -0.030975351 -0.19313122 -0.09825343 -0.087937534
000130 c9 7b ad 3c 1f 47 b1 bd 7a 01 e7 bb 41 cb b1 3c
       0.02117719 -0.086561434 -0.0070497366 0.021703364
000140 dd 71 a4 3c 7a 44 e3 bd e6 a7 d6 bd 13 80 d1 3b
       0.020073825 -0.11097045 -0.10481243 0.0063934415
000150 4b 6d 72 3d 3f 57 93 3d 97 2d 73 bd 06 7d 3b 3d
       0.05918626 0.07194375 -0.05936965 0.04577353
000160 f8 c2 ed 3c 7a 8b b0 bd 9c 71 18 be 3a 49 c6 bc
       0.029023632 -0.08620353 -0.14887089 -0.024204839
000170 d4 30 3f bd a6 20 48 3e a0 bb 6c 3d b3 db 0b be
       -0.046677426 0.19543704 0.05779612 -0.13658027
000180 10 ae 12 be 13 22 11 bb b7 bf e6 bc ca d3 7b 3d
       -0.14324212 -0.0022145554 -0.028167589 0.061481275
000190 0e 2f 9b bb 83 4c d4 3d 5e a0 92 3c ca f1 0e 3d
       -0.004735834 0.10366156 0.017898735 0.034898557
0001a0 6c 4a 2c 3c b5 84 ca bd 6e c5 1a 3e 35 9f 87 3e
       0.01051579 -0.09888593 0.15114376 0.26488653
0001b0 42 bf 77 3d 91 cd de bb e6 a3 95 3d c6 14 33 3d
       0.060485132 -0.006799408 0.07306652 0.043720983
0001c0 b7 89 6b bd 10 35 f4 bd 60 7a c3 3d 0b 84 72 be
       -0.057504382 -0.11924183 0.095448256 -0.23683183
0001d0 27 c4 bc bc 7f 33 05 3d e8 86 30 be 6f 25 e8 bd
       -0.023042751 0.032519814 -0.17238963 -0.11335265
0001e0 d1 f2 2c bd 8d 02 98 bd 49 36 f9 3d 89 15 ce 3d
       -0.042223755 -0.074223615 0.12168557 0.10062701
0001f0 84 8f 12 bd fb 9d 38 bc a2 0c 92 bd 04 70 18 3b
       -0.0357814 -0.011268134 -0.07131316 0.0023260126
000200 37 a0 6b 3c 39 66 a9 3d 3b e0 10 3e 0a 4f 95 bd
       0.01438146 0.082714505 0.14148037 -0.07290466
000210 89 67 57 bd b8 93 9c 3d a5 a5 b8 bd 90 d1 8a 3d
       -0.052588973 0.076453626 -0.09015969 0.06778252
000220 d3 a8 88 bd e6 80 10 3d 9e c3 97 3d ad 46 a9 3d
       -0.06672826 0.035279177 0.07410358 0.082654335
000230 f3 24 86 bd 97 87 9b 3d 7c 24 06 3d e7 51 c8 bd
       -0.06550016 0.07594221 0.032749638 -0.09781247
000240 a4 04 0c bd e9 9d 3a 3d 7c f2 8d bd 92 85 e5 3d
       -0.034184113 0.04556075 -0.06931016 0.11207117
000250 34 6f 08 bc 21 69 56 3d f6 cf 93 bc 9e e8 b0 bd
       -0.008327294 0.052346352 -0.0180435 -0.08638118
000260 1f e4 c2 3c 11 04 73 bd 94 91 88 bd e2 7a 70 bd
       0.023790417 -0.05933005 -0.06668392 -0.05871094
000270 96 2d 6b 3d e6 6f d4 bc c2 40 8e 3d 33 bf cb 3d
       0.05741652 -0.025932264 0.06945945 0.09948578
000280 3f 74 b0 3d 57 32 a2 3d 07 45 94 bd 7a e1 13 3e
       0.08615922 0.07919758 -0.072397284 0.14441481
000290 dd 03 b1 3d 25 60 6a 3d 87 74 8e 3d cc 43 f2 3c
       0.08643315 0.057220597 0.069558196 0.029573344
0002a0 86 c9 bf 3c 11 22 fb bc a9 6c c9 bb 2a f2 68 3e
       0.023411524 -0.030655893 -0.0061469865 0.22748628
0002b0 7c 36 4c 3c 4c 01 e6 3d f2 fa bf bc 5f a7 bc bd
       0.012464162 0.11230716 -0.02343509 -0.09211611
0002c0 28 d7 8c bc 86 50 22 bc 35 c7 05 3e f9 28 5f bd
       -0.017192438 -0.009906894 0.13064273 -0.054482434
0002d0 09 26 03 3d e1 19 79 bd 1e e9 b3 bc 55 fc 54 bb
       0.032018695 -0.060815696 -0.021961745 -0.0032499034
0002e0 68 00 ce 3d aa 17 19 be 01 e4 06 bb 77 e2 3e bd
       0.10058671 -0.14950433 -0.0020582678 -0.046602692
0002f0 10 72 08 3e df a5 73 bc 51 d4 dd bb 13 b6 2e bd
       0.13324761 -0.01487109 -0.006769695 -0.04265411
000300 8b d5 d0 3d 45 d2 ca 3d 78 a0 4d 3d c0 33 5c 3d
       0.1019698 0.09903387 0.050201863 0.05376029
000310 14 1c 9e bc 9f 88 54 3d 11 dc 22 bd 32 1e 74 3d
       -0.019300498 0.051888105 -0.039760653 0.05959911
000320 bc 08 1b bb 1c e3 0a 3c e8 a8 a3 3b 60 2d b0 3d
       -0.002365633 0.008476999 0.0049945004 0.086024046
000330 12 11 f5 3d a0 8a 25 bc 26 2c 0f 3e 93 87 2a 3e
       0.119661465 -0.010103852 0.13981685 0.1665328
000340 05 92 c7 3c 65 74 d5 bd d9 81 ae 3d 84 44 ca 3d
       0.02436162 -0.10422591 0.0852086 0.098763496
000350 60 ee 8f bd 5e fb 41 3e 0b 65 3b 3d 6b f0 b9 3c
       -0.07027888 0.18943545 0.04575066 0.022697648
000360 f4 cd ee bd 83 33 e2 3c f6 7a ce bb a6 b4 e4 3a
       -0.11660376 0.027612453 -0.006301279 0.0017448857
000370 e5 d3 13 3d 4b ac 12 be 4a ca a5 bd a6 d5 16 3e
       0.03609075 -0.14323537 -0.08095224 0.14729938
000380 b0 24 fd bd bf 0f 1b 3d dd e0 9e b9 f6 80 1a 3c
       -0.12360513 0.037856814 -0.00030303645 0.009430161
000390 43 80 da bd e0 4d c5 3c 3d c1 5f 3d 3a df 1f bd
       -0.10668995 0.024084985 0.054627646 -0.039031245
0003a0 be 0f 91 bb 4d 33 8d 3d f8 c3 7e bd 69 19 fe bb
       -0.0044269254 0.068945505 -0.06219861 -0.007754494
0003b0 fc 6b 13 3e 17 7a 92 bd 15 9e b0 3d 96 57 95 bd
       0.14396662 -0.07152193 0.08623902 -0.07292096
0003c0 12 c2 12 bd e3 23 11 be 68 56 33 3e 44 e2 f3 3c
       -0.03582961 -0.14173846 0.1751343 0.029770978
0003d0 3f 14 33 3d 1f 61 ef 3c 8d 38 b7 bd ff fd 74 bd
       0.04372048 0.029221116 -0.08946333 -0.059812542
0003e0 e8 46 fe 3c ea 41 ce 3d 3d 4d 1a 3e 80 c4 96 bd
       0.03103967 0.10071166 0.15068527 -0.07361698
0003f0 bb b1 d9 3c 0b 00 86 3d 96 b6 e8 bd 9f 2f 86 bd
       0.026574006 0.06542977 -0.113629505 -0.06552052

out.bias f4 [7]
000000 5a 10 e8 bd 91 83 41 be 92 7f b2 bd e0 b3 9a 3e
       -0.11331244 -0.18897845 -0.08715738 0.3021536
000010 e5 9e 55 3e 5b a3 aa be 50 8a b2 3d
       0.20861395 -0.33327755 0.08717787
